…
            "574717952/574710816 [==============================] - 4s 0us/step\n",
            "574726144/574710816 [==============================] - 4s 0us/step\n",
            "Model: \"model\"\n",
            "_________________________________________________________________\n",
            " Layer (type)                Output Shape              Param #   \n",
            "=================================================================\n",
            " input_1 (InputLayer)        [(None, 224, 224, 3)]     0         \n",
            "                                                                 \n",
            " block1_conv1 (Conv2D)       (None, 224, 224, 64)      1792      \n",
            "                                                                 \n",
            " block1_conv2 (Conv2D)       (None, 224, 224, 64)      36928     \n",
            "                                                                 \n",
            " block1_pool (MaxPooling2D)  (None, 112, 112, 64)      0         \n",
            "                                                                 \n",
            " block2_conv1 (Conv2D)       (None, 112, 112, 128)     73856     \n",
            "                                                                 \n",
            " block2_conv2 (Conv2D)       (None, 112, 112, 128)     147584    \n",
            "                                                                 \n",
            " block2_pool (MaxPooling2D)  (None, 56, 56, 128)       0         \n",
            "                                                                 \n",
            " block3_conv1 (Conv2D)       (None, 56, 56, 256)       295168    \n",
            "                                                                 \n",
            " block3_conv2 (Conv2D)       (None, 56, 56, 256)       590080    \n",
            "                                                                 \n",
            " block3_conv3 (Conv2D)       (None, 56, 56, 256)       590080    \n",
            "                                                                 \n",
            " block3_conv4 (Conv2D)       (None, 56, 56, 256)       590080    \n",
            "                                                                 \n",
            " block3_pool (MaxPooling2D)  (None, 28, 28, 256)       0         \n",
            "                                                                 \n",
            " block4_conv1 (Conv2D)       (None, 28, 28, 512)       1180160   \n",
            "                                                                 \n",
            " block4_conv2 (Conv2D)       (None, 28, 28, 512)       2359808   \n",
            "                                                                 \n",
            " block4_conv3 (Conv2D)       (None, 28, 28, 512)       2359808   \n",
            "                                                                 \n",
            " block4_conv4 (Conv2D)       (None, 28, 28, 512)       2359808   \n",
            "                                                                 \n",
            " block4_pool (MaxPooling2D)  (None, 14, 14, 512)       0         \n",
            "                                                                 \n",
            " block5_conv1 (Conv2D)       (None, 14, 14, 512)       2359808   \n",
            "                                                                 \n",
            " block5_conv2 (Conv2D)       (None, 14, 14, 512)       2359808   \n",
            "                                                                 \n",
            " block5_conv3 (Conv2D)       (None, 14, 14, 512)       2359808   \n",
            "                                                                 \n",
            " block5_conv4 (Conv2D)       (None, 14, 14, 512)       2359808   \n",
            "                                                                 \n",
            " block5_pool (MaxPooling2D)  (None, 7, 7, 512)         0         \n",
            "                                                                 \n",
            " flatten (Flatten)           (None, 25088)             0         \n",
            "                                                                 \n",
            " fc1 (Dense)                 (None, 4096)              102764544 \n",
            "                                                                 \n",
            " fc2 (Dense)                 (None, 4096)              16781312  \n",
            "                                                                 \n",
            "=================================================================\n",
            "Total params: 139,570,240\n",
            "Trainable params: 139,570,240\n",
            "Non-trainable params: 0\n",
            "_________________________________________________________________\n",
            "None\n"
…
            "==================================================================================================\n",
            " input_5 (InputLayer)           [(None, 35)]         0           []                               \n",
            "                                                                                                  \n",
            " input_4 (InputLayer)           [(None, 4096)]       0           []                               \n",
            "                                                                                                  \n",
            " embedding_1 (Embedding)        (None, 35, 256)      1576704     ['input_5[0][0]']                \n",
            "                                                                                                  \n",
            " dropout_2 (Dropout)            (None, 4096)         0           ['input_4[0][0]']                \n",
            "                                                                                                  \n",
            " dropout_3 (Dropout)            (None, 35, 256)      0           ['embedding_1[0][0]']            \n",
            "                                                                                                  \n",
            " dense_3 (Dense)                (None, 256)          1048832     ['dropout_2[0][0]']              \n",
            "                                                                                                  \n",
            " lstm_1 (LSTM)                  (None, 256)          525312      ['dropout_3[0][0]']              \n",
            "                                                                                                  \n",
            " add_1 (Add)                    (None, 256)          0           ['dense_3[0][0]',                \n",
            "                                                                  'lstm_1[0][0]']                 \n",
            "                                                                                                  \n",
            " dense_4 (Dense)                (None, 256)          65792       ['add_1[0][0]']                  \n",
            "                                                                                                  \n",
            " dense_5 (Dense)                (None, 6159)         1582863     ['dense_4[0][0]']                \n",
            "                                                                                                  \n",
            "==================================================================================================\n",
            "Total params: 4,799,503\n",
            "Trainable params: 4,799,503\n",
            "Non-trainable params: 0\n",
…
